scm/.dart_tool/chrome-device/Default/optimization_guide_prediction_model_downloads/4514ae47-295a-428e-8c3a-fc70b91510fc/model.tflite (tflite, 409956 bytes, 166 tensors)

context_transformer_0/bottleneck_input/norm/add f4 [32]
-0.012348391 0.027307227 -0.18915915 -0.18191244 0.022889996 0.13611929 0.1087022 -0.060462102
-0.030231971 0.0058319937 -0.035552394 0.056001775 0.018741902 0.06976166 -0.008161896 0.13394916
-0.037104372 -0.10552094 0.09408824 0.12358236 -0.023733588 0.0761891 -0.0048751896 -0.062124558
0.037743814 0.072321415 -0.04496585 -0.2509814 -0.06795689 0.004922838 0.009623869 0.0042690774
00000000: e850 4abc 68b3 df3c f0b2 41be 4147 3abe
00000010: cd83 bb3c db62 0b3e 429f de3d 1ca7 77bd
00000020: 0aa9 f7bc 4f1a bf3b 639f 11bd 1e62 653d
00000030: 9e88 993c 34df 8e3d 79b9 05bc f829 093e
00000040: c1fa 17bd 5d1b d8bd 56b1 c03d c018 fd3d
00000050: f16c c2bc 0809 9c3d 0ec0 9fbb 5276 7ebd
00000060: 4299 1a3d 401d 943d 1c2e 38bd a280 80be
00000070: fb2c 8bbd c24f a13b 6fad 1d3c 9ee3 8b3b

context_transformer_1/bottleneck_input/norm/add f4 [32]
0.10325893 0.00893968 -0.15206604 -0.10237318 0.095379375 -0.09608152 -0.0222331 -0.22833401
0.1457736 0.1923192 0.12128172 -0.083478294 -0.32330176 -0.0054550637 0.13312109 -0.011897502
0.24501298 0.0057015223 -0.08975996 -0.03143178 -0.08506415 0.04493467 -0.019977111 0.076263204
0.35249573 0.02484785 -0.08839496 0.12254302 -0.033000894 -0.04922664 -0.24156868 0.03878869
00000000: 6b79 d33d bc77 123c 33b7 1bbe 08a9 d1bd
00000010: 4356 c33d 63c6 c4bd 3122 b6bc 64d0 69be
00000020: ad45 153e 53ef 443e 8d62 f83d abf6 aabd
00000030: cf87 a5be 64c0 b2bb e550 083e bded 42bc
00000040: afe4 7a3e d6d3 ba3b 12d4 b7bd 9cbe 00bd
00000050: 1d36 aebd 6b0d 383d 0aa7 a3bc e22f 9c3d
00000060: 527a b43e b88d cb3c 6b08 b5bd d6f7 fa3d
00000070: f22b 07bd e0a1 49bd c85d 77be e4e0 1e3d

mention_transformer_0/bottleneck_input/norm/add f4 [32]
-0.11270751 -0.14234433 -0.044219684 -0.03866279 0.1836415 -0.03627085 -0.10033136 -0.026507977
-0.098381035 -0.020531936 -0.21413761 -0.1531769 -0.24080673 0.15894243 0.06669407 0.07613949
-0.014116116 0.005504954 -0.018188197 0.09944645 0.038812764 0.019666675 0.01980975 -0.045755774
-0.103184104 -0.12696245 0.0806672 -0.039199434 -0.088244125 0.03473957 -0.040883064 -0.06673567
00000000: 32d3 e6bd b6c2 11be b31f 35bd e05c 1ebd
00000010: 840c 3c3e be90 14bd 877a cdbd 4227 d9bc
00000020: ff7b c9bd 9732 a8bc e446 5bbe 68da 1cbe
00000030: 0a96 76be cec1 223e e796 883d 05ef 9b3d
00000040: 4847 67bc e762 b43b 6aff 94bc 95aa cb3d
00000050: 22fa 1e3d 021c a13c 0f48 a23c 686a 3bbd
00000060: 3052 d3bd 7202 02be d834 a53d 968f 20bd
00000070: 56b9 b4bd 144b 0e3d 0075 27bd b6ac 88bd

mention_transformer_1/bottleneck_input/norm/add f4 [32]
0.27533165 -0.07975433 0.21594964 0.01993405 0.041313067 -0.06016805 0.042273674 -0.12159033
-0.050465327 -0.03268311 0.1621567 0.20130855 -0.06336113 0.18792534 -0.122293234 -0.085244864
0.17791657 -0.31892607 0.27515787 0.12154853 -0.011043861 0.005986765 0.055781 0.29467782
0.021802606 0.48129869 0.04856532 0.13279976 -0.2825993 0.060146432 0.111721635 0.01694725
00000000: 45f8 8c3e 3d56 a3bd e721 5d3e bc4c a33c
00000010: e437 293d c672 76bd 2927 2d3d 5a04 f9bd
00000020: bbb4 4ebd bade 05bd 680c 263e d423 4e3e
00000030: 7bc3 81bd 806f 403e e074 fabd dc94 aebd
00000040: c32f 363e 474a a3be 7ee1 8c3e 70ee f83d
00000050: 4ff1 34bc a02c c43b 9e7a 643d 03e0 963e
00000060: 619b b23c c86c f63e 6eec 463d a9fc 073e
00000070: dbb0 90be 1b5c 763d 50ce e43d f6d4 8a3c

context_transformer_0/attention/value/add;context_transformer_0/attention/value/einsum/Einsum;context_transformer_0/attention/value/add/ReadVariableOp/resource f4 [32]
0.022110872 -0.08233752 0.017746383 -0.08458188 0.007145824 -0.03334125 -0.039106686 0.037021182
-0.018810129 -0.06916756 0.0021793544 -0.026752632 0.07271177 0.04836805 -0.011495081 0.07231394
-0.093332924 -0.014339473 -0.089286 0.00040645397 0.06147957 -0.0504766 0.083099596 -0.056355428
0.06678174 -0.04951899 -0.052837107 0.01637208 -0.09397827 -0.043979917 0.061116204 -0.05234935
00000000: dc21 b53c 93a0 a8bd dd60 913c 4439 adbd
00000010: 8427 ea3b d690 08bd 552e 20bd 86a3 173d
00000020: b317 9abc b9a7 8dbd 80d3 0e3b 5628 dbbc
00000030: e9e9 943d 941d 463d dd55 3cbc 5519 943d
00000040: 5525 bfbd 1cf0 6abc 94db b6bd 5419 d539
00000050: 00d2 7b3d 8dc0 4ebd 1f30 aa3d f3d4 66bd
00000060: ddc4 883d 6dd4 4abd b96b 58bd be1e 863c
00000070: ae77 c0bd 4924 34bd fc54 7a3d 466c 56bd

context_transformer_0/bottleneck_input/norm/mul f4 [32, 32]
-0.44398987 -0.1599308 0.513749 -0.34965378 -0.08557472 -0.26247248 0.13119747 0.02687199
0.062461227 0.2327191 0.07431927 0.02839865 0.12024737 0.12040431 0.16880283 0.0991633
0.17158838 -0.22767751 -0.16177398 0.23878944 0.01078675 0.03061332 -0.0042963666 0.2898534
-0.14999546 0.06963644 -0.03225157 0.38963357 0.16178402 -0.19752355 0.1648423 -0.19693191
0.28621197 0.012993009 -0.2773521 -0.21805401 -0.14683177 -0.16694012 -0.17806496 -0.06717006
0.14121096 -0.04615833 0.19429462 -0.08274237 0.059981316 0.15036051 0.020288682 -0.010697765
-0.5287751 -0.08665899 0.13491255 -0.154319 0.005031955 0.13301055 0.06709049 0.058763683
0.266921 -0.13037027 0.22973926 -0.08324484 0.18100701 0.022093555 -0.06119967 -0.07415841
-0.013794452 -0.015382513 0.13468678 0.4834989 -0.06921908 -0.010468797 0.020943642 -0.19829339
-0.10810858 0.013032628 -0.04357411 -0.050482605 -0.23026295 -0.067470275 -0.08154364 -0.28622702
-0.12493299 0.26203695 -0.07775766 0.38252327 0.05125235 0.06672761 0.06828212 -0.13727239
0.07593416 -0.071588814 -0.26872385 0.07353292 -0.10682811 -0.1874188 -0.09559206 0.021834925
0.05335494 -0.17906113 -0.46084994 0.0067377714 0.1776222 0.07878848 -0.07877745 -0.16428624
0.13893844 -0.54095465 -0.04784011 0.021405093 0.1561225 -0.029940257 0.05762091 -0.1505921
-0.505741 -0.20244257 0.38041452 -0.29937518 0.08574932 -0.02333153 0.19879393 0.40964702
0.0234526 0.114619896 0.18124937 0.05816885 0.07949145 0.11641134 -0.07755858 -0.073319994
0.20602387 -0.057976462 -0.08752471 0.11356888 -0.24210423 0.15532926 0.23256668 0.12455939
-0.10419048 0.017061725 0.022643343 0.18694486 -0.14767955 -0.08991256 -0.07793643 -0.089379124
-0.03540967 -0.3671741 0.2825959 0.078148626 0.09475593 0.1464429 -0.121272884 -0.012880416
0.11744646 0.036008976 -0.08352377 -0.07179998 0.24750687 0.14098997 -0.105770655 -0.09271292
-0.084376454 0.025424428 -0.17655277 0.0058015925 -0.03621161 0.0627512 -0.31702536 0.14177874
0.16353217 -0.13843979 0.26586226 0.094068006 0.3363575 0.36274883 -0.27606198 -0.16943075
-0.2849931 -0.035687532 -0.16372456 0.10995965 0.39802638 -0.032527994 0.059263356 0.045480732
0.1470099 -0.045327142 0.34891587 0.25461087 0.25596532 -0.24560793 -0.18534234 0.023657598
0.39620557 0.115458414 -0.15453465 0.20186308 -0.15436998 0.26420578 -0.008547158 -0.03652798
-0.13726555 0.038328566 -0.059421435 -0.0041301874 -0.20749961 -0.12194053 0.05005861 -0.023571743
0.007734832 -0.20587379 -0.053964272 -0.0937936 0.31835452 0.19641533 0.03592585 -0.097306445
-0.19030774 0.08938053 -0.20324662 -0.11784704 -0.07223271 0.02197328 -0.05183761 0.12237018
0.15056619 0.03641638 -0.21844184 -0.1710389 0.10832496 0.33475986 -0.10261849 -0.08481353
-0.33482236 0.09521156 0.21787405 -0.17421521 0.08955722 -0.18486558 0.030448586 -0.25635365
0.21204378 0.029451398 -0.023744531 0.0016573871 -0.038484015 0.16175362 -0.13449477 0.2016498
-0.031722076 -0.3351933 0.079688504 -0.33310091 0.15267374 0.28664345 -0.1575388 0.001591848
00000000: a452 e3be e6c4 23be 0e85 033f d205 b3be
00000010: cc41 afbd cb62 86be a158 063e a622 dc3c
00000020: 58d7 7f3d ea4d 6e3e b434 983d 49a4 e83c
00000030: 4144 f63d 8996 f63d a6da 2c3e 2116 cb3d
00000040: ddb4 2f3e 4b24 69be 14a8 25be 3885 743e
00000050: e9ba 303c c9c8 fa3c 89c8 8cbb aa67 943e
00000060: 6998 19be 8d9d 8e3d 391a 04bd 0d7e c73e
00000070: b6aa 253e 9d43 4abe 6bcc 283e 85a8 49be
00000080: 608a 923e a1e0 543c 1801 8ebe 8d49 5fbe
00000090: 115b 16be 5af2 2abe a956 36be 7590 89bd
000000a0: 9b99 103e 8410 3dbd 2bf5 463e d574 a9bd
000000b0: f8ae 753d 1bf8 193e 7334 a63c ae45 2fbc
000000c0: ce5d 07bf 457a b1bd 8426 0a3e cd05 1ebe
000000d0: 19e3 a43b eb33 083e bd66 893d 30b2 703d
000000e0: dfa9 883e c97f 05be c540 6b3e 457c aabd
000000f0: e759 393e 8bfd b43c 81ac 7abd 5de0 97bd
00000100: 2002 62bc f006 7cbc 55eb 093e 2b8d f73e
00000110: bcc2 8dbd 5185 2bbc 0092 ab3c 6c0d 4bbe
00000120: 0868 ddbd ce86 553c c47a 32bd d9c6 4ebd
00000130: 0dca 6bbe db2d 8abd 5a00 a7bd 598c 92be
00000140: dedc ffbd b529 863e 683f 9fbd 17da c33e
00000150: fced 513d 7ca8 883d 7fd7 8b3d 2291 0cbe
00000160: 5e83 9b3d 289d 92bd 2c96 89be 6d98 963d
00000170: b2c8 dabd b7ea 3fbe c5c5 c3bd 28df b23c
00000180: b68a 5a3d cd5b 37be 86f4 ebbe 86c8 dc3b
00000190: 98e2 353e db5b a13d 1256 a1bd a73a 28be
000001a0: e145 0e3e 017c 0abf fef3 43bd bc59 af3c
000001b0: 94de 1f3e 4545 f5bc e703 6c3d d134 1abe
000001c0: 3e78 01bf 1b4d 4fbe b1c5 c23e b447 99be
000001d0: 579d af3d c421 bfbc a390 4b3e 41bd d13e
000001e0: ab1f c03c d6bd ea3d 6f99 393e 7642 6e3d
000001f0: 6acc a23d 1269 ee3d 08d7 9ebd cb28 96bd
00000200: ecf7 523e ba78 6dbd 2840 b3bd cd96 e83d
00000210: 2cea 77be a20e 1f3e f625 6e3e fe18 ff3d
00000220: d261 d5bd 08c5 8b3c 887e b93c 796e 3f3e
00000230: 4f39 17be 1424 b8bd 239d 9fbd 670c b7bd
00000240: bb09 11bd 3efe bbbe 69b0 903e 630c a03d
00000250: 660f c23d 21f5 153e eb5d f8bd 6108 53bc
00000260: c587 f03d 267e 133d 830e abbd de0b 93bd
00000270: 7172 7d3e ad5f 103e 499e d8bd 45e0 bdbd
00000280: 90cd acbd e446 d03c 40ca 34be 491b be3b
00000290: a052 14bd b383 803d 2651 a2be 722e 113e
000002a0: fa74 273e 29c3 0dbe 191f 883e baa6 c03d
000002b0: 0d37 ac3e 37ba b93e ff57 8dbe 417f 2dbe
000002c0: 9eea 91be 172d 12bd 69a7 27be 8632 e13d
000002d0: 1dca cb3e 133c 05bd 22be 723d 014a 3a3d
000002e0: c389 163e f4a8 39bd 1aa5 b23e 5b5c 823e
000002f0: e30d 833e a580 7bbe 62ca 3dbe 94cd c13c
00000300: 75db ca3e 7675 ec3d 553e 1ebe 32b5 4e3e
00000310: 2a13 1ebe fb45 873e 6109 0cbc 5d9e 15bd
00000320: 578f 0cbe 6afe 1c3d e463 73bd 8656 87bb
00000330: c77a 54be f5bb f9bd 420a 4d3d 8719 c1bc
00000340: 7974 fd3b 94d0 52be a409 5dbd dc16 c0bd
00000350: 5dff a23e 1a21 493e fc26 133d 9a48 c7bd
00000360: 08e0 42be 240d b73d e21f 50be ca59 f1bd
00000370: beee 93bd 4f01 b43c ac53 54bd 389d fa3d
00000380: 062e 1a3e 5829 153d 38af 5fbe d224 2fbe
00000390: 7ad9 dd3d a565 ab3e a529 d2bd b7b2 adbd
000003a0: d66d abbe 47fe c23d 601a 5f3e 7965 32be
000003b0: c769 b73d 674d 3dbe 506f f93c c940 83be
000003c0: 0122 593e 0f44 f13c e483 c2bc af3c d93a
000003d0: 6aa1 1dbd bea2 253e ffb8 09be 497d 4e3e
000003e0: 02ef 01bd 759e abbe ba33 a33d 348c aabe
000003f0: 8156 1c3e eec2 923e da51 21be 8ea5 d03a

context_transformer_0/kq_shared_bottleneck/norm/mul;context_transformer_0/kq_shared_bottleneck/norm/add;context_transformer_0/attention/key/einsum/Einsum;context_transformer_0/attention/key/add;context_transformer_0/attention/value/einsum/Einsum;context_transformer_0/attention/key/add/ReadVariableOp/resource f4 [32]
0.09660261 0.16201746 -0.16358006 -0.13972841 0.08583252 -0.17082004 0.045790017 -0.08928194
0.004661777 0.010264642 0.0013232472 -0.0010995913 0.037016988 -0.27720493 -0.03692188 -0.010702356
0.13861097 0.037254214 0.09233102 -0.0430895 0.08074428 -0.020480761 0.09654099 -0.034784302
-0.13392137 0.1372583 0.15062316 0.1415964 -0.16959244 -0.102559574 -0.16108203 0.15487218
00000000: 97d7 c53d e8e7 253e 8881 27be f714 0fbe
00000010: f6c8 af3d 73eb 2ebe 508e 3b3d 73d9 b6bd
00000020: d2c1 983b 072d 283c cf70 ad3a 2920 90ba
00000030: 209f 173d ceed 8dbe 663b 17bd ef58 2fbc
00000040: 09f0 0d3e e097 183d 0c18 bd3d 9e7e 30bd
00000050: 425d a53d 45c7 a7bc 48b7 c53d fc79 0ebd
00000060: af22 09be 718d 0c3e f53c 1a3e a6fe 103e
00000070: a4a9 2dbe c10a d2bd b0f2 24be d096 1e3e

context_transformer_0/kq_shared_bottleneck/norm/mul;context_transformer_0/kq_shared_bottleneck/norm/add;context_transformer_0/attention/key/einsum/Einsum;context_transformer_0/attention/key/add;context_transformer_0/attention/value/einsum/Einsum;context_transformer_0/attention/key/add/ReadVariableOp/resource1 f4 [32, 32]
0.1376265 0.17144525 -0.121922895 -0.2362632 0.2015278 0.0032121215 0.21195886 0.011200105
0.20917852 -0.008491529 -0.21439019 0.25870433 -0.12523831 0.04091931 -0.07504104 -0.09927198
-0.18943875 0.13158725 0.051505122 -0.21437055 -0.19197474 -0.053493544 0.064108625 -0.147208
0.13051572 0.039846055 0.3856669 0.05749978 -0.32599494 0.0826336 -0.20074505 -0.24975473
0.06984961 0.19886349 0.008959203 -0.23539267 0.032674257 -0.0034963507 0.092855565 -0.05076442
0.21940435 -0.052832365 -0.30779833 0.10058815 -0.07605647 0.032185555 0.039449275 0.07247046
-0.23130895 0.042550102 0.09736814 -0.09801241 -0.1773931 -0.048273303 -0.08231394 -0.11107696
0.15046974 -0.026549881 0.14253362 -0.028474795 -0.2882887 0.0020981606 -0.0848219 -0.20556603
-0.06981801 -0.19020914 0.061622944 0.26549703 -0.08383906 0.054908372 -0.13018884 0.0700794
-0.17850184 0.0138743585 0.25943673 -0.15373965 0.08397482 -0.050201844 -0.0058179554 -0.029023107
0.22731063 -0.08794812 -0.103426546 0.1211686 0.21617246 0.030772053 0.02598028 0.10127152
-0.15313943 -0.0061771846 -0.2444267 -0.004979248 0.3399683 -0.029293591 0.14226769 0.29628363
-0.1160151 -0.17839387 0.061807267 0.2488654 -0.08936076 -0.013899774 -0.16687283 0.01804059
-0.20034069 0.021520004 0.24204849 -0.18095201 0.06860109 -0.09808123 -0.004917901 0.018200802
0.20391504 -0.073630854 -0.04502084 0.17193551 0.22515959 0.031931724 0.017867832 0.11194076
-0.1371883 -0.04178012 -0.23892248 -0.058609806 0.32090735 -0.03439521 0.1515242 0.2458408
0.12331337 0.15409894 -0.093434855 -0.19895642 0.14028166 0.010226678 0.1750124 0.063059166
0.15658137 0.028419677 -0.15478973 0.21000761 -0.07714374 0.080693245 -0.06607195 -0.08534355
-0.12869336 0.14038736 0.0062329504 -0.17387442 -0.16547112 -0.05004684 0.06396785 -0.121975996
0.14723843 0.058624525 0.32159021 0.07397618 -0.29509875 0.10264227 -0.13503706 -0.22142027
0.0034952064 -0.19721094 -0.067863725 0.26517516 0.034127727 -0.0454474 -0.093687415 0.051233254
-0.15912971 0.03774902 0.27435404 -0.044735476 0.052279532 -0.0030204067 -0.07587025 -0.10877795
0.22725895 0.006750115 -0.14353709 0.06332134 0.17036688 0.030319395 0.10636033 0.06415741
-0.13913582 0.041022718 -0.086235784 0.039713256 0.33510953 0.04911207 0.043143142 0.17205533
0.20125847 0.18198292 -0.11766239 -0.21060906 0.20456666 -0.026596868 0.22089463 0.11204202
0.20723577 0.06358636 -0.18223922 0.26316017 -0.18464969 0.021003725 -0.07463474 -0.11559249
-0.20055513 0.14745393 -0.014038438 -0.21776102 -0.15686941 -0.08981278 0.13132867 -0.18447089
0.15167436 0.063586615 0.36970425 0.07060757 -0.27168483 0.11574122 -0.20992056 -0.21856694
-0.17074248 -0.18434772 0.090238795 0.2299942 -0.13371429 0.036480088 -0.19400509 -0.013867736
-0.1798147 0.0010335199 0.19571649 -0.2160592 0.12612794 -0.016557543 0.07059382 0.072654955
0.20857766 -0.14365521 -0.046929058 0.14835797 0.18778692 0.04758621 -0.05880647 0.1324122
-0.1448762 -0.08079442 -0.3252663 -0.04260219 0.25153232 -0.096374966 0.14257404 0.20840053
00000000: f6ed 0c3e 588f 2f3e b6b2 f9bd fbee 71be
00000010: 4e5d 4e3e 7582 523b be0b 593e a580 373c
00000020: e532 563e 0e20 0bbc 1a89 5bbe e574 843e
00000030: 793e 00be 029b 273d 1eaf 99bd 1c4f cbbd
00000040: 3bfc 41be cfbe 063e 09f7 523d f483 5bbe
00000050: 0795 44be 0c1c 5bbd 624b 833d b2bd 16be
00000060: eaa5 053e 9e35 233d 2276 c53e e484 6b3d
00000070: cfe8 a6be ce3b a93d 1c90 4dbe b4bf 7fbe
00000080: 500d 8f3d dfa2 4b3e 9fc9 123c c70a 71be
00000090: 71d5 053d 0823 65bb 0f2b be3d 5aee 4fbd
000000a0: 89ab 603e c066 58bd be97 9dbe 2901 ce3d
000000b0: 7fc3 9bbd 00d5 033d 9095 213d 646b 943d
000000c0: 41dc 6cbe 0449 2e3d f368 c73d bbba c8bd
000000d0: 89a6 35be 3aba 45bd 3694 a8bd 517c e3bd
000000e0: bd14 1a3e 237f d9bc 55f4 113e f943 e9bc
000000f0: 949a 93be 4b81 093b 1bb7 adbd e77f 52be
00000100: bffc 8ebd 2fc6 42be 5768 7c3d 3aef 873e
00000110: d0b3 abbd 9ae7 603d 3950 05be ca85 8f3d
00000120: 30c9 36be 4751 633c e4d4 843e ed6d 1dbe
00000130: fefa ab3d 73a0 4dbd 8ca4 bebb dec1 edbc
00000140: 1ec4 683e 251e b4bd 4cd1 d3bd 3e27 f83d
00000150: 505c 5d3e ac15 fc3c 99d4 d43c 7167 cf3d
00000160: 95d0 1cbe fb69 cabb fe4a 7abe f628 a3bb
00000170: 5310 ae3e 1df9 efbc 9fae 113e 7db2 973e
00000180: 5399 edbd e2ac 36be 9e29 7d3d 92d6 7e3e
00000190: c602 b7bd e1bb 63bc b6e0 2abe dcc9 933c
000001a0: 1c26 4dbe b84a b03c 8fdb 773e 7c4b 39be
000001b0: ba7e 8c3d d0de c8bd 5826 a1bb d919 953c
000001c0: 1bcf 503e c6cb 96bd c667 38bd dd0f 303e
000001d0: 3c90 663e d7ca 023d 8f5f 923c 3241 e53d
000001e0: 177b 0cbe a221 2bbd 18a8 74be d610 70bd
000001f0: f84d a43e fee1 0cbd 2929 1b3e b1bd 7b3e
00000200: b88b fc3d 1dcc 1d3e c65a bfbd 3bbb 4bbe
00000210: ffa5 0f3e cc8d 273c 7336 333e 2a25 813d
00000220: de56 203e 62d0 e83c 3381 1ebe 3c0c 573e
00000230: 8afd 9dbd 8042 a53d bb50 87bd 99c8 aebd
00000240: 31c8 03be b4c1 0f3e c73d cc3b 230c 32be
00000250: 4371 29be eafd 4cbd 9301 833d 8dce f9bd
00000260: acc5 163e 4520 703d 79a7 a43e d380 973d
00000270: 2f17 97be 1c36 d23d 2847 0abe ffbb 62be
00000280: d50f 653b aaf1 49be 23fc 8abd 0ac5 873e
00000290: 84c9 0b3d 0e27 3abd 30df bfbd f6d9 513d
000002a0: e6f2 22be b79e 1a3d 2278 8c3e 8c3c 37bd
000002b0: 1023 563d 04f2 45bb dd61 9bbd f9c6 debd
000002c0: 92b6 683e 1230 dd3b 63fb 12be 9eae 813d
000002d0: a874 2e3e 6160 f83c 72d3 d93d f664 833d
000002e0: 9f79 0ebe 7007 283d 639c b0bd 5eaa 223d
000002f0: 7a93 ab3e bd29 493d ddb6 303d 462f 303e
00000300: b316 4e3e bb59 3a3e fbf8 f0bd e7a9 57be
00000310: ec79 513e ade1 d9bc 3432 623e 4976 e53d
00000320: 9d35 543e 9139 823d eb9c 3abe eebc 863e
00000330: cf14 3dbe 0110 ac3c 19da 98bd c1bb ecbd
00000340: 535e 4dbe 2afe 163e 7a01 66bc bffc 5ebe
00000350: 60a2 20be c3ef b7bd 067b 063e f0e5 3cbe
00000360: 8650 1b3e b339 823d e049 bd3e b49a 903d
00000370: 461a 8bbe bc09 ed3d 6af5 56be 03d0 5fbe
00000380: 1ed7 2ebe a6c5 3cbe 1ecf b83d 9983 6b3e
00000390: 66ec 08be 256c 153d 45a9 46be 8035 63bc
000003a0: 5821 38be 2c77 873a e769 483e 9f3e 5dbe
000003b0: af27 013e afa3 87bc 7e93 903d 1fcc 943d
000003c0: 6295 553e 5a1a 13be af38 40bd 27eb 173e
000003d0: 374b 403e c2e9 423d 0edf 70bd 1097 073e
000003e0: 6d5a 14be 8b77 a5bd 4e89 a6be a27f 2ebd
000003f0: d8c8 803e 3d60 c5bd eefe 113e f366 553e

context_transformer_0/kq_shared_bottleneck/norm/mul;context_transformer_0/kq_shared_bottleneck/norm/add;context_transformer_0/attention/query/einsum/Einsum;context_transformer_0/attention/query/add;context_transformer_0/attention/value/einsum/Einsum;context_transformer_0/attention/query/add/ReadVariableOp/resource;context_transformer_0/attention/Mul;context_transformer_0/attention/Mul/y f4 [32]
0.17051859 0.10782425 -0.14074336 -0.13664745 0.13445497 -0.088040486 0.16746053 -0.14867994
0.11928366 0.1225953 -0.1131757 -0.05791936 -0.09775986 -0.09391996 -0.10887993 -0.097743675
-0.14999615 0.14667378 -0.15585427 -0.14269109 0.14792797 0.15625086 0.15657449 -0.14597408
-0.07698461 0.07854578 0.11082497 0.095738366 -0.11009571 -0.060570497 -0.10815079 0.105475135
00000000: 6d9c 2e3e f6d2 dc3d 071f 10be 4fed 0bbe
00000010: 90ae 093e 924e b4bd c67a 2b3e 8e3f 18be
00000020: fe4a f43d 3f13 fb3d a9c8 e7bd da3c 6dbd
00000030: 5236 c8bd 1c59 c0bd 71fc debd d62d c8bd
00000040: 9798 19be a731 163e 4398 1fbe 9d1d 12be
00000050: 6e7a 173e 3a00 203e 1055 203e 3b7a 15be
00000060: 1baa 9dbd 9cdc a03d 34f8 e23d 7a12 c43d
00000070: dc79 e1bd c518 78bd 297e ddbd 5903 d83d

context_transformer_0/kq_shared_bottleneck/norm/mul;context_transformer_0/kq_shared_bottleneck/norm/add;context_transformer_0/attention/query/einsum/Einsum;context_transformer_0/attention/query/add;context_transformer_0/attention/value/einsum/Einsum;context_transformer_0/attention/query/add/ReadVariableOp/resource;context_transformer_0/attention/Mul;context_transformer_0/attention/Mul/y1 f4 [32, 32]
-0.056065015 0.028304698 -0.0077174525 -0.0518981 0.01009866 0.01200444 -0.037790224 -0.055777423
0.020252205 -0.022991499 -0.040608965 -0.052338228 0.053983945 0.1430982 0.016247066 0.011299299
-0.04311028 -0.025121568 0.04467663 0.024392014 -0.022854378 0.011975024 -0.05601312 0.028515777
0.00091329234 0.006253952 -0.042584937 -0.040027365 -0.026711281 -0.01166988 0.049458526 -0.09823166
-0.04158726 -0.016119076 -0.004637516 -0.005141245 -0.016252123 -0.0570739 -0.048457257 0.013594224
-0.009932507 0.011237797 0.018539185 -0.057147413 0.055248205 0.12889315 -0.006477808 -0.004687672
0.018181173 0.026961703 0.01806498 0.0137568945 0.017366193 -0.009524884 -0.03454457 0.026579445
-0.022375278 0.00066931517 -0.051594 0.0102178585 0.030477386 -0.031128276 0.050567538 -0.0745278
0.054697003 -0.012183036 -0.010193257 0.03288592 0.030539535 0.05607284 0.03666415 -0.00018983973
-0.0060603633 0.008902856 0.017511904 0.060261775 -0.06878606 -0.13808574 0.006634881 -0.008459652
0.013350253 -0.0185303 -0.030921616 -0.019747728 -0.0060364758 0.008935538 0.040936578 -0.034954842
0.008057286 -0.016354317 0.05128681 0.0010029181 -0.0066118254 0.021045705 -0.050501846 0.07266271
0.046413094 -0.0120454505 -0.0055847676 0.029238123 0.0024202133 0.01791428 0.041220862 0.011872913
-0.008620271 0.00094712246 0.009262599 0.04814615 -0.061455626 -0.15379131 -0.015373471 -0.0012592919
0.0056490777 -0.002252506 -0.044791598 -0.02272675 -0.006205913 -0.008032826 0.040992707 -0.024834149
0.01042755 -0.020954011 0.050173227 -0.00041095933 -0.00906129 0.010977309 -0.04209678 0.097676106
-0.03095281 0.01120927 -0.0032128699 -0.039246973 0.009655292 0.027981538 -0.028488943 -0.046901215
0.024246452 -0.028193556 -0.038225383 -0.054436203 0.03968689 0.1248346 0.013064571 0.018589314
-0.03438344 -0.01868362 0.051593013 0.017796844 -0.010205708 0.009683101 -0.032001965 0.02024821
0.0077668997 -0.009756381 -0.048624277 -0.012540355 -0.015419458 -0.0014511073 0.029934444 -0.10836857
0.04663881 0.033366308 -0.012048565 -0.010848377 0.024723757 0.06886668 0.046368863 -0.03740593
0.020016208 -0.03028511 -0.015507049 0.041941866 -0.064720675 -0.12237325 0.02378249 0.02138199
-0.03217141 -0.024205241 -0.0086966725 -0.011285966 -0.033406936 0.009437306 0.029342944 -0.03836201
0.028460015 -0.004921713 0.034957297 -0.02921782 -0.051309254 0.05058852 -0.046232484 0.04897634
-0.03822098 0.02458382 0.004239129 -0.053751722 0.0073198676 0.06617447 -0.05187199 -0.05817375
0.046512466 -0.05104697 -0.05871398 -0.060065478 0.05473959 0.12811767 0.029647227 0.012483753
-0.04796451 -0.035176724 0.05365844 0.02374527 -0.015281379 0.029938972 -0.04133424 0.027781362
0.0026403666 -0.0035235554 -0.03353499 -0.046332285 -0.02463369 -0.0027523423 0.047355883 -0.106067844
0.04566358 -0.017785264 -0.012453359 0.041465677 0.00029572306 -0.02463039 0.03391307 0.03974585
-0.02690224 0.024243047 0.03027518 0.04907692 -0.05486021 -0.12503228 -0.0147761665 -0.0031369722
0.016090257 0.01557393 -0.053006258 -0.016386075 0.010198694 -0.02063224 0.04658963 -0.02396227
-0.01408153 -0.007916611 0.040490963 0.021260818 0.0072645014 0.008707904 -0.048140243 0.100931525
00000000: 6ea4 65bd 41df e73c afe2 fcbb 1a93 54bd
00000010: da74 253c 45ae 443c ecc9 1abd de76 64bd
00000020: f4e7 a53c ab58 bcbc 9655 26bd 9c60 56bd
00000030: 451e 5d3d 5688 123e 9118 853c b220 393c
00000040: 6894 30bd bfcb cdbc d8fe 363d c3d1 c73c
00000050: 1b39 bbbc e432 443c 036e 65bd eb99 e93c
00000060: 036a 6f3a f4ed cc3b 8b6d 2ebd bcf3 23bd
00000070: 9ed1 dabc 0633 3fbc 0695 4a3d ae2d c9bd
00000080: 6757 2abd 270c 84bc 4ef6 97bb e477 a8bb
00000090: 2c23 85bc 52c6 69bd 1e7b 46bd 4fba 5e3c
000000a0: f4bb 22bc bd1e 383c 7ddf 973c 6813 6abd
000000b0: f14b 623d 91fc 033e cb43 d4bb 0b9b 99bb
000000c0: aff0 943c cade dc3c 02fd 933c 9964 613c
000000d0: 8c43 8e3c 420e 1cbc 9b7e 0dbd 23bd d93c
000000e0: 5c4c b7bc fb74 2f3a 3b54 53bd ce68 273c
000000f0: b6ab f93c ba00 ffbc e81f 4f3d 08a2 98bd
00000100: f709 603d 5b9b 47bc 9e01 27bc 63b3 063d
00000110: 0c2e fa3c a2ac 653d 262d 163d b70f 47b9
00000120: 0396 c6bb 49dd 113c 2075 8f3c 0dd5 763d
00000130: b5df 8cbd 5966 0dbe 6a69 d93b 5a9a 0abc
00000140: 05bb 5a3c dbcc 97bc 544f fdbc fdc5 a1bc
00000150: a1cd c5bb 5d66 123c 1dad 273d cf2c 0fbd
00000160: b502 043c 7df9 85bc 1e12 523d 5974 833a
00000170: 03a8 d8bb 0b68 ac3c 06db 4ebd 30d0 943d
00000180: a81b 3e3d 485a 45bc 6d00 b7bb ca84 ef3c
00000190: 719c 1e3b f8c0 923c 35d7 283d 9b86 423c
000001a0: 0a3c 0dbc 5048 783a 28c2 173c e634 453d
000001b0: e5b8 7bbd 787b 1dbe 03e1 7bbc d30e a5ba
000001c0: e61b b93b c89e 13bb 6577 37bd 732d babc
000001d0: f95a cbbb 1d9c 03bc f8e7 273d fc70 cbbc
000001e0: 51d8 2a3c bfa7 abbc 7182 4d3d 0776 d7b9
000001f0: ce75 14bc 2cda 333c ac6d 2cbd 690a c83d
00000200: bf90 fdbc 16a7 373c 038f 52bb 6fc1 20bd
00000210: 3b31 1e3c 8a39 e53c a561 e9bc 7d1b 40bd
00000220: 7fa0 c63c 2cf6 e6bc 3892 1cbd 7ff8 5ebd
00000230: b88e 223d 48a9 ff3d c80c 563c 9e48 983c
00000240: a6d5 0cbd 640e 99bc 3253 533d b0ca 913c
00000250: d835 27bc dfa5 1e3c 7e14 03bd 93df a53c
00000260: 7a81 fe3b 3ad9 1fbc 402a 47bd 1076 4dbc
00000270: e5a1 7cbc 1533 beba 1439 f53c 57f0 ddbd
00000280: 5608 3f3d 1cab 083d 5867 45bc 64bd 31bc
00000290: 7a89 ca3c f909 8d3d 47ed 3d3d f636 19bd
000002a0: 08f9 a33c 7b18 f8bc 4711 7ebc 3ccb 2b3d
000002b0: 468c 84bd d49e fabd 7fd3 c23c 4829 af3c
000002c0: 2bc6 03bd 124a c6bc 7d7c 0ebc c6e8 38bc
000002d0: b6d5 08bd ee9e 1a3c 9d60 f03c 7c21 1dbd
000002e0: fa24 e93c 5246 a1bb 622f 0f3d 365a efbc
000002f0: a729 52bd e835 4f3d 465e 3dbd 6a9b 483d
00000300: 9a8d 1cbd 0264 c93c 64e8 8a3b c42a 5cbd
00000310: 80db ef3b 7b86 873d b977 54bd 9947 6ebd
00000320: db83 3e3d a116 51bd 127e 70bd 3807 76bd
00000330: 9f36 603d 4731 033e bede f23c a888 4c3c
00000340: 6f76 44bd 7815 10bd f4c8 5b3d 7185 c23c
00000350: c05e 7abc 9342 f53c 184e 29bd bd95 e33c
00000360: 000a 2d3b 73eb 66bb fc5b 09bd ecc6 3dbd
00000370: 98cc c9bc a460 34bb 3ef8 413d 193a d9bd
00000380: bc09 3b3d 67b2 91bc 2c09 4cbc ead7 293d
00000390: 470b 9b39 acc5 c9bc 6ee8 0a3d 8bcc 223d
000003a0: 1662 dcbc 5b99 c63c a703 f83c e104 493d
000003b0: 19b5 60bd 7608 00be bc17 72bc a995 4dbb
000003c0: b7cf 833c cc29 7f3c 171d 59bd 173c 86bc
000003d0: 6c18 273c f204 a9bc c5d4 3e3d 864c c4bc
000003e0: 38b6 66bc acb4 01bc dad9 253d 2b2b ae3c
000003f0: 0e0b ee3b 99ab 0e3c b42e 45bd 30b5 ce3d

context_transformer_0/ffn_layer_0/intermediate_dense/einsum/Einsum;context_transformer_0/ffn_layer_0/intermediate_dense/Relu;context_transformer_0/ffn_layer_0/intermediate_dense/add f4 [32]
-0.14928694 -0.1332743 -0.3331995 -0.33670726 -0.1904396 -0.2663871 -0.3668028 -0.39142692
-0.33552074 -0.32771263 -0.2517022 -0.29721874 -0.082067825 -0.26197806 -0.27937648 -0.18930885
-0.20496275 -0.36558017 -0.2907574 -0.31805965 -0.3489135 -0.114990935 -0.3267712 -0.2694821
-0.31000006 -0.25974587 -0.25240627 -0.22373484 -0.13438337 -0.24816231 -0.16669029 -0.27766964
00000000: adde 18be 0f79 08be 2099 aabe e564 acbe
00000010: 9902 43be e463 88be 94cd bbbe 1c69 c8be
00000020: 60c9 abbe f3c9 a7be 1cdf 80be 0e2d 98be
00000030: 2d13 a8bd fd21 86be 6f0a 8fbe 2eda 41be
00000040: c1e1 51be 532d bbbe 27de 94be b7d8 a2be
00000050: caa4 b2be 5e80 ebbd 8e4e a7be 8ff9 89be
00000060: 54b8 9ebe 69fd 84be 653b 81be bf1a 65be
00000070: cb9b 09be 431e 7ebe dcb0 2abe b72a 8ebe

context_transformer_0/attention/norm/mul;context_transformer_0/attention/norm/add;context_transformer_0/ffn_layer_0/intermediate_dense/einsum/Einsum;context_transformer_0/ffn_layer_0/intermediate_dense/Relu;context_transformer_0/ffn_layer_0/intermediate_dense/add f4 [32, 32]
0.08217964 -0.3742743 0.2612421 0.25026342 0.08163318 0.015628101 -0.20653501 0.2536745
-0.09403596 0.123987615 -0.06654798 -0.049658716 -0.3548486 0.015331304 0.22085662 0.11956858
-0.058823813 0.29411688 -0.12278359 -0.11108361 0.047834165 0.02126136 0.1973536 -0.2879613
-0.11017349 0.012622867 0.12950724 0.14926945 0.009422044 0.17190161 0.010271219 0.4492522
0.068068564 -0.27400753 0.1269899 -0.1709883 0.3693561 -0.24467814 -0.10500888 0.34922487
0.2704128 0.13274096 -0.3716343 -0.048508618 -0.12545156 0.10225481 -0.15314825 -0.22022942
-0.18571915 0.012985295 -0.0068218773 0.029532082 0.15976804 -0.40819332 0.08478847 -0.19055231
0.047789942 -0.25608453 0.05698467 -0.057518683 -0.12999432 -0.025650132 0.12924825 -0.018193979
-0.0570796 -0.09662736 0.055862986 0.07770492 0.06580673 0.162943 -0.10484696 0.25369197
0.076004684 0.07786103 -0.30086392 0.07300601 -0.13460839 -0.020256873 0.20356487 0.20254624
-0.06522103 0.1832155 0.12714666 -0.24916808 0.066703126 -0.12721905 0.14411102 0.045020383
-0.106923446 0.10648527 -0.04270201 -0.08657193 0.13934965 0.26218805 -0.0136154555 -0.30987146
0.04736718 0.22810958 0.25690448 0.08806129 -0.08815386 0.11266102 -0.26179677 -0.032496884
-0.1615425 0.11637176 -0.07115878 0.015304418 0.15102762 -0.061948422 -0.03646563 -0.1830673
0.14058055 0.17052594 0.2035925 0.047182694 -0.22049665 -0.006993203 -0.06880194 -0.0026747468
0.1721919 0.09760719 0.1571401 0.47017312 0.14879456 -0.02633507 0.07997802 0.27024648
0.20012179 0.120341145 0.056539096 -0.09881101 -0.06801101 0.12084591 -0.39177704 -0.06313512
-0.10435882 0.30458367 0.121923566 -0.077247016 0.064066105 -0.28371862 0.002355438 -0.0061851386
0.20501217 0.12881297 0.25587484 0.03156858 -0.12852618 0.20473656 -0.073058166 -0.018534899
-0.093118116 0.14225768 -0.101600744 0.04794718 -0.24111703 -0.026594942 -0.008486286 -0.05809115
0.26795173 -0.22160695 0.41497883 -0.1761566 0.027791794 0.1289225 -0.112066485 -0.03978595
-0.1468929 -0.21641257 -0.2450792 -0.15704009 0.104194954 -0.186004 0.064208224 -0.31036255
0.026067449 0.16922322 0.16429959 -0.012741132 -0.07879532 -0.085487686 -0.14370786 -0.014659613
0.11362511 0.072155245 0.14110573 0.21412694 0.21041703 -0.12548432 0.04570839 0.107989386
0.21208371 -0.20497184 0.17764083 0.10922268 -0.21900305 -0.25611892 -0.13625063 -0.11957272
-0.17306429 -0.30863595 0.15858686 -0.095038325 0.07961216 -0.27009282 0.23943043 -0.12285707
-0.23547386 0.22958283 -0.017709162 -0.018927338 -0.025656555 -0.17972127 -0.00922116 -0.09140557
0.060136072 -0.041391134 0.19151649 0.0027535192 0.27923715 -0.012304937 0.002734184 0.3811266
0.24317075 0.03253207 0.09370849 0.33267957 0.14092201 -0.15197353 -0.024844782 0.3192015
0.0914699 0.093933076 -0.16118984 -0.15869446 -0.28726667 -0.2846012 0.12864366 -0.022672167
-0.05304936 -0.020041993 -0.23620164 0.13777599 0.027156014 -0.4008828 -0.13645911 0.0799067
-0.3339139 -0.426164 0.02531339 0.25074226 0.26745954 -0.011734097 -0.06040871 -0.00032941607
00000000: cd4d a83d e2a0 bfbe 86c1 853e 8722 803e
00000010: 4c2f a73d 8106 803c ea7d 53be a0e1 813e
00000020: ed95 c0bd 38ed fd3d 4f4a 88bd f066 4bbd
00000030: b7ae b5be 2630 7b3c 3d28 623e 5fe0 f43d
00000040: 3df1 70bd 7d96 963e f675 fbbd ce7f e3bd
00000050: c2ed 433d 4e2c ae3c 1017 4a3e aa6f 93be
00000060: a4a2 e1bd 24d0 4e3c 8c9d 043e 17da 183e
00000070: eb5e 1a3c fa06 303e 9d48 283c 6204 e63e
00000080: 8867 8b3d b74a 8cbe a409 023e 8f17 2fbe
00000090: 3e1c bd3e e88c 7abe e50e d7bd 9acd b23e
000000a0: 8c73 8a3e 3fed 073e da46 bebe f9b0 46bd
000000b0: 6076 00be f86a d13d e5d2 1cbe d283 61be
000000c0: 292d 3ebe 46c0 543c 0e8a dfbb 44ed f13c
000000d0: 3c9a 233e b7fe d0be 94a5 ad3d 2520 43be
000000e0: 63bf 433d 831d 83be c268 693d b698 6bbd
000000f0: 3b1d 05be 3a20 d2bc a759 043e 8a0b 95bc
00000100: 4ccc 69bd 91e4 c5bd 96d0 643d c223 9f3d
00000110: aec5 863d 88da 263e 01ba d6bd eae3 813e
00000120: 58a8 9b3d 9b75 9f3d d60a 9abe 2d84 953d
00000130: c8d6 09be bef1 a5bc 4f73 503e 4868 4f3e
00000140: 9a92 85bd d89c 3b3e bc32 023e eb25 7fbe
00000150: a69b 883d b645 02be d791 133e 4b67 383d
00000160: aefa dabd f314 da3d 4ee8 2ebd a04c b1bd
00000170: adb1 0e3e 833d 863e 5c13 5fbc 79a7 9ebe
00000180: 1704 423d 8f95 693e fc88 833e 7a59 b43d
00000190: 038a b4bd d2ba e63d 3a0a 86be 741b 05bd
000001a0: 666b 25be 5154 ee3d b2bb 91bd 62bf 7a3c
000001b0: fca6 1a3e a1bd 7dbd fc5c 15bd ff75 3bbe
000001c0: 59f4 0f3e 5a9e 2e3e 8d7a 503e a442 413d
000001d0: e0c9 61be 3d27 e5bb 08e8 8cbd ce4a 2fbb
000001e0: 1353 303e 47e6 c73d 56e9 203e 88ba f03e
000001f0: 9a5d 183e a5bc d7bc 84cb a33d bf5d 8a3e
00000200: baec 4c3e 6b75 f63d 8a95 673d 6d5d cabd
00000210: 5b49 8bbd 0f7e f73d 0097 c8be fc4c 81bd
00000220: 14ba d5bd 64f2 9b3e 10b3 f93d af33 9ebd
00000230: 1735 833d 9143 91be b15d 1a3b b4ac cabb
00000240: b6ee 513e 8ce7 033e 0702 833e 0e4e 013d
00000250: 5e9c 03be 76a6 513e 859f 95bd 80d6 97bc
00000260: b6b4 bebd ffab 113e 0d14 d0bd 4364 443d
00000270: 62e7 76be a3dd d9bc 100a 0bbc fcf0 6dbd
00000280: f830 893e efec 62be 1b78 d43e 6562 34be
00000290: 9eab e33c 4304 043e 1d83 e5bd 98f6 22bd
000002a0: 186b 16be 429b 5dbe 0bf6 7abe 1ecf 20be
000002b0: 2a64 d53d d577 3ebe 9a7f 833d d7e7 9ebe
000002c0: 678b d53c da48 2d3e 273e 283e 2ec0 50bc
000002d0: 715f a1bd 2b14 afbd 2728 13be e02e 70bc
000002e0: 48b4 e83d 21c6 933d 057e 103e 1844 5b3e
000002f0: 9077 573e f67e 00be b938 3b3d 8a29 dd3d
00000300: 792c 593e 23e4 51be 7ae7 353e 24b0 df3d
00000310: 5642 60be 0522 83be 4985 0bbe 8be2 f4bd
00000320: c437 31be 8805 9ebe 9864 223e 74a3 c2bd
00000330: b30b a33d 9b49 8abe 402d 753e 7d9c fbbd
00000340: 0f20 71be c317 6b3e ce12 91bc 810d 9bbc
00000350: b22d d2bc da08 38be 5914 17bc d832 bbbd
00000360: 3e51 763d c089 29bd e61c 443e 6374 343b
00000370: 2cf8 8e3e a59a 49bc ff2f 333b 0723 c33e
00000380: c101 793e 5940 053d 3dea bf3d fa54 aa3e
00000390: dc4d 103e f39e 1bbe 4987 cbbc 616e a33e
000003a0: 9254 bb3d fc5f c03d f30e 25be cd80 22be
000003b0: 9e14 93be 40b7 91be 2abb 033e fbba b9bc
000003c0: 494a 59bd 1b2f a4bc d8de 71be 2615 0d3e
000003d0: 4a76 de3c 8340 cdbe f0bb 0bbe 20a6 a33d
000003e0: c3f6 aabe 2b32 dabe 075e cf3c 4a61 803e
000003f0: 75f0 883e 5f40 40bc 206f 77bd 7ab5 acb9

context_transformer_0/ffn_layer_1/intermediate_dense/einsum/Einsum;context_transformer_0/ffn_layer_1/intermediate_dense/Relu;context_transformer_0/ffn_layer_1/intermediate_dense/add f4 [32]
-0.040742323 -0.08259392 -0.06533302 0.014115528 0.09299217 -0.066341005 -0.13595876 -0.16921917
-0.06911602 0.11623668 0.038169276 0.120001435 -0.11098375 -0.07689279 -0.2997358 -0.15933001
-0.20364301 0.218546 -0.13254552 -0.18977712 -0.50525224 -0.17202945 -0.13083778 -0.093443975
-0.10377267 -0.07205528 -0.3670712 -0.06148516 -0.08563396 -0.070661694 -0.47781166 -0.15425478
00000000: 6ce1 26bd 0027 a9bd 52cd 85bd d144 673c
00000010: ae72 be3d cbdd 87bd c638 0bbe ca47 2dbe
00000020: b38c 8dbd 7f0d ee3d 6357 1c3d 50c3 f53d
00000030: 734b e3bd f879 9dbd f976 99be 6827 23be
00000040: cb87 50be 86ca 5f3e 03ba 07be ef54 42be
00000050: 3658 01bf 7d28 30be 57fa 05be 8e5f bfbd
00000060: c486 d4bd b891 93bd c2f0 bbbe ddd7 7bbd
00000070: dc60 afbd 14b7 90bd bba3 f4be f7f4 1dbe

context_transformer_0/ffn_layer_0/norm/mul;context_transformer_0/ffn_layer_0/norm/add;context_transformer_0/ffn_layer_1/intermediate_dense/einsum/Einsum;context_transformer_0/ffn_layer_1/intermediate_dense/Relu;context_transformer_0/ffn_layer_1/intermediate_dense/add f4 [32, 32]
0.023428695 -0.7069235 0.030248914 -0.07634121 0.010996326 -0.5407876 0.030034805 -0.08633497
0.06911539 -0.22820248 -0.013571396 0.039215088 0.1294889 -0.23086089 -0.13061948 -0.14781336
-0.04912377 0.035115637 -0.34370163 -0.06587306 0.4249756 0.33034825 0.043140225 0.08130979
0.019319763 -0.042672377 -0.21092214 0.13368158 -0.013599837 -0.079532534 -0.42006814 -0.087150946
0.009025931 -0.07023743 0.027376141 0.035352796 0.004542351 -0.06858661 -0.075233966 -0.014179293
0.050638895 -0.079978965 -0.009164802 0.05874196 0.012981718 -0.031477977 -0.031246776 -0.058576528
-0.027589194 0.0032170627 -0.016256362 0.032783188 -0.0060421186 0.022627061 -0.042777874 0.032883707
-0.032648183 -0.005168822 -0.06067563 0.06274283 0.077728435 0.022088818 -0.0030468048 0.007869866
-0.32959345 -0.057334747 0.004042536 0.40966183 -0.11635224 0.08094265 0.045826044 0.008746918
0.16134377 -0.0063742306 -0.0058094687 0.07453916 -0.16883428 0.22264741 0.1438928 -0.22676499
-0.1872045 -0.25109205 -0.13397858 -0.19689673 -0.13588712 -0.057459958 -0.11172291 0.28311485
-0.05906028 -0.5508566 -0.08801897 0.19379689 -0.04645704 0.18878494 0.058544498 0.017386736
-0.35843927 0.101936564 0.10846448 0.33615193 -0.18959026 -0.36728466 0.12562005 -0.06309721
0.021840991 0.048959438 0.2350116 0.17115915 -0.06769887 0.14361659 0.2750285 0.066655636
-0.3300357 0.053598035 -0.25314283 -0.043432735 0.093860775 -0.1336521 0.26691103 0.20700853
-0.100328 -0.31474918 -0.1415757 0.089578144 0.14632533 -0.011563475 -0.09823529 -0.094289824
0.021720566 -0.067156285 0.27434796 0.14111985 0.11397174 -0.15523738 -0.056569878 -0.20602453
0.2452056 -0.27253926 0.31645733 -0.22710241 0.06616488 -0.28016356 -0.06031625 -0.07246865
0.31315076 0.12570623 -0.057857882 -0.2425498 0.24047107 -0.0037438853 -0.22244687 0.4542311
-0.029567624 -0.060908467 0.1682908 0.0020270236 0.6740695 0.022189602 -0.041046426 -0.27501976
-0.11123191 -0.12636483 -0.02656168 0.063880295 -0.39300895 -0.4239861 0.21997489 -0.16517143
-0.010035295 -0.15184364 0.40591416 -0.025139732 0.05281249 0.12316852 -0.021644933 -0.078875445
-0.15635891 -0.21468595 -0.111240245 -0.010300452 -0.21441817 -0.29565912 0.27340966 0.041631304
-0.08348932 -0.13775055 0.16597544 0.06778428 0.15745978 0.27601504 0.17465314 0.14734079
-0.015468568 0.035962477 0.06458355 0.088987015 -0.025782911 0.026363658 -0.052855678 -0.036021765
0.02370805 -0.038696226 -0.0021402028 0.0033341697 -0.007646038 -0.055269435 0.02679993 -0.005660584
-0.02556301 0.015612059 -0.07303313 -0.03469035 0.04066978 -0.034276344 0.038818493 0.0034716036
-0.032063145 0.018232787 -0.005739001 0.047520127 0.009506394 -0.010187369 -0.018854003 -0.009280226
-0.1994787 -0.046577517 0.17740962 0.058853816 0.249869 0.02319919 -0.48854214 0.11227783
0.040835712 0.066919684 -0.27152562 0.19524333 0.029593837 -0.0851054 0.107128076 -0.15815867
0.23247643 0.07317919 0.08819301 0.04330384 -0.080062546 -0.17720892 -0.23293068 0.03810882
0.11598036 -0.14274667 -0.3022332 0.34515747 -0.15152074 -0.06507029 -0.2567631 -0.05360422
00000000: 89ed bf3c f0f8 34bf 92cc f73c c858 9cbd
00000010: ef29 343c 0e71 0abf 8d0b f63c 64d0 b0bd
00000020: 5f8c 8d3d e9ad 69be 8f5a 5ebc 00a0 203d
00000030: bd98 043e cc66 6cbe 1dc1 05be 635c 17be
00000040: 0236 49bd 6ad5 0f3d a9f9 afbe 74e8 86bd
00000050: 6796 d93e 6823 a93e ceb3 303d bf85 a63d
00000060: 7b44 9e3c 3bc9 2ebd f9fb 57be d3e3 083e
00000070: dad1 5ebc f4e1 a2bd 2c13 d7be 327c b2bd
00000080: 80e1 133c a4d8 8fbd ee43 e03c 18ce 103d
00000090: 00d8 943b 2377 8cbd 4414 9abd 4450 68bc
000000a0: bb6a 4f3d 03cc a3bd f727 16bc 699b 703d
000000b0: 46b1 543c 0def 00bd 3df9 ffbc f1ed 6fbd
000000c0: bc02 e2bc 5bd5 523b 102c 85bc aa47 063d
000000d0: f7fc c5bb 635c b93c da37 2fbd 11b1 063d
000000e0: 1aba 05bd 395f a9bb 0287 78bd 507f 803d
000000f0: 1630 9f3d 9cf3 b43c e7ac 47bb 9cf0 003c
00000100: 79c0 a8be d7d7 6abd 4077 843b 32bf d13e
00000110: 154a eebd 43c5 a53d 17b4 3b3d 3c4f 0f3c
00000120: 4d37 253e ecde d0bb 5b5d bebb fda7 983d
00000130: e5e2 2cbe affd 633e a258 133e 1535 68be
00000140: 89b2 3fbe 238f 80be ae31 09be 4c9f 49be
00000150: fe25 0bbe 225b 6bbd fbce e4bd 6ef4 903e
00000160: 31e9 71bd f004 0dbf 4a43 b4bd b172 463e
00000170: bd49 3ebd d750 413e 5bcc 6f3d a16e 8e3c
00000180: 5a85 b7be 1ec4 d03d a022 de3d 1b1c ac3e
00000190: f323 42be bc0c bcbe 8ba2 003e 1c39 81bd
000001a0: e1eb b23c b189 483d e2a6 703e 5844 2f3e
000001b0: b5a5 8abd 3a10 133e 89d0 8c3e c082 883d
000001c0: 70fa a8be 9d89 5b3d f09b 81be 86e6 31bd
000001d0: 143a c03d 19dc 08be 90a8 883e 0bfa 533e
000001e0: c478 cdbd ce26 a1be 38f9 10be bf74 b73d
000001f0: 4fd6 153e bb74 3dbc 952f c9bd 061b c1bd
00000200: 54ef b13c 3c89 89bd 5677 8c3e b981 103e
00000210: 046a e93d 8cf6 1ebe d1b5 67bd 18f8 52be
00000220: 2d17 7b3e 448a 8bbe b206 a23e 898d 68be
00000230: 7481 873d 9971 8fbe 2c0e 77bd 726a 94bd
00000240: 4c55 a03e 22b9 003e 63fc 6cbd fa5e 78be
00000250: 0c3e 763e f95b 75bb 1dc9 63be fb90 e83e
00000260: cd37 f2bc 287b 79bd 6c54 2c3e d0d7 043b
00000270: d28f 2c3f f8c6 b53c 4c20 28bd 64cf 8cbe
00000280: 8ecd e3bd c865 01be e197 d9bc acd3 823d
00000290: 7838 c9be b514 d9be 1941 613e b322 29be
000002a0: 146b 24bc e67c 1bbe fbd3 cf3e d7f1 cdbc
000002b0: e951 583d c73f fc3d b750 b1bc 7389 a1bd
000002c0: 8d1c 20be a2d6 5bbe edd1 e3bd 3ac3 28bc
000002d0: 7090 5bbe a260 97be 5afc 8b3e 9685 2a3d
000002e0: 73fc aabd 7b0e 0dbe 77f5 293e 7cd2 8a3d
000002f0: 233d 213e d851 8d3e 46d8 323e 81e0 163e
00000300: e06f 7dbc 644d 133d 6144 843d d33e b63d
00000310: af36 d3bc 99f8 d73c 327f 58bd 8f8b 13bd
00000320: 6237 c23c ef7f 1ebd a542 0cbb 1682 5a3b
00000330: 9e8b fabb 3462 62bd 878b db3c 6c7c b9bb
00000340: 8469 d1bc b9c9 7f3c 6592 95bd 7817 0ebd
00000350: 5b95 263d 5a65 0cbd 2400 1f3d d883 633b
00000360: a554 03bd ed5c 953c 3b0e bcbb 77a4 423d
00000370: b5c0 1b3c ece8 26bc b673 9abc 170c 18bc
00000380: 2544 4cbe 11c8 3ebd deaa 353e b310 713d
00000390: a9dd 7f3e 3a0c be3c 3222 fabe ebf1 e53d
000003a0: 5943 273d 300d 893d 6805 8bbe deed 473e
000003b0: c66e f23c bd4b aebd f765 db3d 59f4 21be
000003c0: 4d0e 6e3e f9de 953d 899e b43d 5e5f 313d
000003d0: d5f7 a3bd 4176 35be 6185 6ebe fe17 1c3d
000003e0: 1c87 ed3d 2f2c 12be 4fbe 9abe 7bb8 b03e
000003f0: 4128 1bbe 9243 85bd 7476 83be 1990 5bbd

context_transformer_0/ffn_layer_2/intermediate_dense/einsum/Einsum;context_transformer_0/ffn_layer_2/intermediate_dense/Relu;context_transformer_0/ffn_layer_2/intermediate_dense/add f4 [32]
-0.07859423 -0.12340925 -0.45160136 -0.16959856 -0.11409374 -0.37069657 -0.03570305 -0.1454694
-0.09064511 -0.25650105 -0.12643977 -0.3912175 -0.13499801 -0.40212184 -0.058882874 -0.08638648
-0.34931985 -0.23350008 -0.11393064 -0.025334256 -0.22316238 -0.036109466 -0.15426095 -0.19738567
0.09818175 -0.28424865 -0.15577671 -0.22000797 -0.22430675 -0.20898317 -0.5174921 -0.14646013
00000000: 03f6 a0bd fdbd fcbd 4b38 e7be 3fab 2dbe
00000010: fba9 e9bd f1cb bdbe 5d3d 12bd eef5 14be
00000020: 25a4 b9bd 1b54 83be 6d79 01be a94d c8be
00000030: eb3c 0abe eae2 cdbe 2b2f 71bd 65eb b0bd
00000040: 0dda b2be a51a 6fbe 7854 e9bd c989 cfbc
00000050: ae84 64be 85e7 13bd 95f6 1dbe 781f 4abe
00000060: 8313 c93d 0a89 91be ee83 1fbe c549 61be
00000070: abb0 65be afff 55be 5d7a 04bf a5f9 15be

context_transformer_0/ffn_layer_1/norm/mul;context_transformer_0/ffn_layer_1/norm/add;context_transformer_0/ffn_layer_2/intermediate_dense/einsum/Einsum;context_transformer_0/ffn_layer_2/intermediate_dense/Relu;context_transformer_0/ffn_layer_2/intermediate_dense/add f4 [32, 32]
0.4308975 -0.13422656 0.014305271 -0.021160932 0.20301095 0.025613893 -0.0051577287 0.27249345
0.23370022 0.05106029 -0.06793657 -0.13810058 -0.17318597 0.08460078 0.19491436 -0.08567303
0.035128657 0.14365363 -0.17785904 0.051421437 0.11271119 0.052924223 0.1733473 -0.08757372
-0.1813756 -0.04583622 0.047847193 0.29940003 -0.06291254 0.21769594 0.068794146 -0.2385803
0.284799 0.2894642 0.045984704 0.05758452 -0.26109138 0.049501274 -0.011158751 0.06693228
-0.36867815 -0.014801066 0.27236056 -0.00060542376 0.1692358 0.07721396 0.16595028 -0.006579917
0.2164675 -0.08869721 0.12018924 -0.10800041 -0.21627368 -0.07839442 -0.03818003 0.073355295
0.1467966 -0.14923376 0.12229015 0.03271868 0.10984672 -0.058963384 -0.09286204 -0.22229697
-0.20812166 0.12525743 0.0611089 -0.0038341838 -0.1224651 0.19520247 0.0620759 -0.14847784
0.12425598 -0.20289055 -0.240745 -0.056651846 -0.18059956 -0.27530092 -0.21783218 0.041334014
-0.17685166 0.08339655 -0.23365703 0.0046234243 -0.19941539 -0.29947737 0.13839918 -0.29019225
-0.19181955 -0.17395864 0.1697685 0.020635985 0.2890389 0.15307447 0.019134315 0.11631842
0.09289639 -0.0865397 -0.049767137 -0.07185813 0.27247205 0.0010892098 -0.17411724 0.20678182
-0.11068574 0.06713504 -0.055766433 0.116647124 0.00451765 -0.18865557 -0.12663984 -0.0012874546
0.07328743 0.08192818 0.1008202 -0.22641656 0.48356903 -0.10321095 0.42063317 0.1093419
-0.25103995 0.09170575 -0.06300482 0.23470666 -0.05095072 -0.07601644 -0.19912727 -0.43248343
0.057288557 -0.13038756 -0.07635385 -0.047923483 0.02652793 -0.028556248 -0.047665138 -0.08823324
0.17852923 -0.10729236 0.015334346 -0.034087382 0.007877527 -0.23878522 0.026124487 -0.0021718398
-0.018479047 0.08492759 -0.0476718 -0.03169529 -0.08436424 -0.089048564 -0.09138277 0.0005202263
-0.06314309 0.03537549 -0.0108297495 0.12030553 0.06827361 -0.041312926 0.021677848 0.09933497
-0.06352016 0.18414985 -0.008662724 -0.004550079 -0.31589305 0.22112526 -0.036137708 -0.1523966
0.023428677 0.1493697 0.11207528 0.012571018 0.10613804 -0.38877007 -0.12930097 0.10804104
0.06721567 -0.038359612 -0.19585638 -0.009599777 -0.006691466 -0.122555695 0.27421102 -0.3122478
0.08492608 0.0005183996 0.14494921 0.057448976 0.04946823 -0.12928309 -0.018710768 0.16829035
0.09434793 -0.050042357 0.07347234 0.15491925 -0.047294308 -0.0026667947 0.11703392 0.10781291
0.18047619 -0.10333504 -0.18930553 0.06783487 0.16277349 -0.34416234 0.07060829 0.06732453
-0.28733078 0.28498086 0.15921047 -0.2011543 -0.35340753 -0.07339611 0.10863626 -0.124313906
-0.018689714 -0.09888696 -0.035697665 0.41332346 0.03393935 -0.094407514 0.11352429 0.015239219
-0.0039793593 0.013352206 0.11824233 0.028120851 -0.014023097 -0.19315073 0.054077428 0.12402047
-0.14281587 0.14731364 0.17784046 -0.12424364 -0.2064288 -0.061337136 -0.2804588 0.19320956
-0.18602523 0.14036353 -0.18454914 0.06227299 0.11138607 0.29247242 0.4201918 -0.25092325
0.0027153736 -0.025885733 0.14320856 -0.1348023 0.24368607 0.25782356 -0.081901856 -0.28836998
00000000: 999e dc3e b072 09be a860 6a3c b159 adbc
00000010: 1ae2 4f3e 3ad4 d13c 2a02 a9bb 4384 8b3e
00000020: 1c4f 6f3e 9824 513d 5422 8bbd 3d6a 0dbe
00000030: aa57 31be 2c43 ad3d a197 473e 5775 afbd
00000040: 11e3 0f3d f019 133e ae20 36be 499f 523d
00000050: 20d5 e63d 12c7 583d f481 313e da59 b3bd
00000060: 86ba 39be c3be 3bbd 6bfb 433d f64a 993e
00000070: 4ad8 80bd afeb 5e3e f2e3 8c3d 654e 74be
00000080: 2dd1 913e a734 943e 755a 3c3d bfdd 6b3d
00000090: c5ad 85be d9c1 4a3d 32d3 36bc cb13 893d
000000a0: 62c3 bcbe 2c80 72bc d872 8b3e 4db5 1eba
000000b0: 264c 2d3e 5a22 9e3d dfee 293e 589c d7bb
000000c0: a8a9 5d3e e2a6 b5bd c725 f63d 522f ddbd
000000d0: d976 5dbe 418d a0bd aa62 1cbd 4d3b 963d
000000e0: d951 163e bcd0 18be 4273 fa3d 0604 063d
000000f0: 51f7 e03d 9783 71bd 742e bebd d1a1 63be
00000100: d81d 55be 7c43 003e 534d 7a3d ee46 7bbb
00000110: fbce fabd 28e3 473e 4d43 7e3d 930a 18be
00000120: eb79 fe3d 8ac2 4fbe db85 76be c40b 68bd
00000130: 17ef 38be 3ef4 8cbe 660f 5fbe db4d 293d
00000140: 9a18 35be cfcb aa3d ca43 6fbe 1880 973b
00000150: 8c33 4cbe 1955 99be 84b8 0d3e 1494 94be
00000160: 586c 44be 3722 32be cbd7 2d3e cc0c a93c
00000170: e8fc 933e 8ebf 1c3e 91bf 9c3c 5a38 ee3d
00000180: 7640 be3d ba3b b1bd a0d8 4bbd 5b2a 93bd
00000190: 7581 8b3e d1c3 8e3a ca4b 32be 9dbe 533e
000001a0: 35af e2bd 197e 893d 586b 64bd b0e4 ee3d
000001b0: cc08 943b ed2e 41be e0ad 01be cfbf a8ba
000001c0: b817 963d f6c9 a73d d27a ce3d bed9 67be
000001d0: 5c96 f73e 4360 d3bd 3b5d d73e a5ee df3d
000001e0: 4f88 80be 39d0 bb3d ac08 81bd f156 703e
000001f0: b4b1 50bd 82ae 9bbd 05e8 4bbe 786e ddbe
00000200: 68a7 6a3d 5184 05be 685f 9cbd 6a4b 44bd
00000210: 1a51 d93c cbee e9bc 853c 43bd a1b3 b4bd
00000220: 5ed0 363e 19bc dbbd e93c 7b3c 369f 0bbd
00000230: be10 013c 1d84 74be 0503 d63c 6d55 0ebb
00000240: 5f61 97bc 84ee ad3d 8143 43bd ecd2 01bd
00000250: 29c7 acbd 185f b6bd e426 bbbd cc5f 083a
00000260: 2a51 81bd e4e5 103d 436f 31bc bf62 f63d
00000270: 09d3 8b3d be37 29bd be95 b13c 2270 cb3d
00000280: dc16 82bd c791 3c3e 19ee 0dbc d418 95bb
00000290: bcbc a1be a96e 623e 2205 14bd db0d 1cbe
000002a0: 7fed bf3c 5ff4 183e b987 e53d acf6 4d3c
000002b0: e75e d93d df0c c7be 7967 04be 9f44 dd3d
000002c0: 5fa8 893d f81e 1dbd 938e 48be 6248 1dbc
000002d0: 1644 dbbb 7bfe fabd 6365 8c3e f2de 9fbe
000002e0: baed ad3d 35e5 073a 916d 143e 9e4f 6b3d
000002f0: 339f 4a3d c962 04be 5347 99bc 4e54 2c3e
00000300: 7d39 c13d 37f9 4cbd ab78 963d 27a3 1e3e
00000310: adb7 41bd 64c5 2ebb 7baf ef3d 04cd dc3d
00000320: c0ce 383e 52a1 d3bd 4fd9 41be 02ed 8a3d
00000330: 18ae 263e 0c36 b0be 149b 903d 71e1 893d
00000340: 051d 93be 03e9 913e 1208 233e 65fb 4dbe
00000350: d5f1 b4be b350 96bd b07c de3d 4a98 febd
00000360: 2c1b 99bc 3f85 cabd b737 12bd 229f d33e
00000370: fd03 0b3d ba58 c1bd 6c7f e83d ebad 793c
00000380: 4965 82bb 36c3 5a3c 0929 f23d b35d e63c
00000390: 22c1 65bc 4ec9 45be 4b80 5d3d 72fe fd3d
000003a0: 533e 12be 63d9 163e cf1b 363e 7373 febd
000003b0: 1262 53be a63c 7bbd 4c98 8fbe bad8 453e
000003c0: 667d 3ebe 75bb 0f3e 73fa 3cbe f611 7f3d
000003d0: 611e e43d f2be 953e 6123 d73e 0379 80be
000003e0: 69f4 313b 510e d4bc 44a5 123e 9d09 0abe
000003f0: d788 793e 7301 843e 29bc a7bd 3ba5 93be

context_transformer_0/ffn_layer_3/intermediate_dense/einsum/Einsum;context_transformer_0/ffn_layer_3/intermediate_dense/Relu;context_transformer_0/ffn_layer_3/intermediate_dense/add f4 [32]
-0.39931247 -0.15010555 0.037121717 -0.18303147 -0.114601575 -0.31497827 -0.20398717 -0.0021621205
-0.18251103 -0.124968044 -0.11604821 -0.05880304 -0.043744747 -0.04447638 -0.057886492 0.0085432725
-0.36376742 0.014457462 -0.1560726 0.06687136 -0.15750165 0.06572573 -0.12058037 -0.04041251
-0.10571588 -0.16588056 -0.16510056 -0.04866591 -0.29949412 -0.24787892 -0.07244595 -0.112444475
00000000: af72 ccbe 45b5 19be f10c 183d 9a6c 3bbe
00000010: 3bb4 eabd d544 a1be 03e2 50be 5db2 0dbb
00000020: 2ce4 3abe 3fef ffbd afaa edbd 75db 70bd
00000030: b12d 33bd dd2c 36bd 631a 6dbd 15f9 0b3c
00000040: b93f babe fede 6c3c 7fd1 1fbe daf3 883d
00000050: 1d48 21be 369b 863d d7f2 f6bd 9787 25bd
00000060: 9181 d8bd 98dc 29be 1f10 29be e855 47bd
00000070: 4b57 99be f9d3 7dbe 8b5e 94bd 4a49 e6bd
